…
    checkpoint_test: 5000
    checkpoint_save: 5000
    checkpoint_print: 200
    F_feature_layer: 34
    F_weights: 1.0
    F_lossfn_type: l1
    F_use_input_norm: True
    F_use_range_norm: False
    G_optimizer_reuse: False
    G_param_strict: True
    E_param_strict: True
    E_decay: 0
  ]
  opt_path: options/train_rrdb_psnr.json
  is_train: True
  find_unused_parameters: True
  dist: False
  num_gpu: 1
  rank: 0
  world_size: 1

21-12-22 22:10:06.100 : Number of train images: 60, iters: 2
21-12-22 22:10:08.604 : 
Networks name: RRDB
Params number: 16697987
Net structure:
RRDB(
  (model): Sequential(
    (0): Conv2d(3, 64, kernel_size=(3, 3), stride=(1, 1), padding=(1, 1))
    (1): Identity + 
    |Sequential(
    |  (0): RRDB(
    |    (RDB1): ResidualDenseBlock_5C(
    |      (conv1): Sequential(
    |        (0): Conv2d(64, 32, kernel_size=(3, 3), stride=(1, 1), padding=(1, 1))
    |        (1): ReLU(inplace=True)
    |      )
    |      (conv2): Sequential(
    |        (0): Conv2d(96, 32, kernel_size=(3, 3), stride=(1, 1), padding=(1, 1))
    |        (1): ReLU(inplace=True)
    |      )
    |      (conv3): Sequential(
    |        (0): Conv2d(128, 32, kernel_size=(3, 3), stride=(1, 1), padding=(1, 1))
    |        (1): ReLU(inplace=True)
    |      )
    |      (conv4): Sequential(
    |        (0): Conv2d(160, 32, kernel_size=(3, 3), stride=(1, 1), padding=(1, 1))
    |        (1): ReLU(inplace=True)
    |      )
    |      (conv5): Conv2d(192, 64, kernel_size=(3, 3), stride=(1, 1), padding=(1, 1))
    |    )
    |    (RDB2): ResidualDenseBlock_5C(
    |      (conv1): Sequential(
    |        (0): Conv2d(64, 32, kernel_size=(3, 3), stride=(1, 1), padding=(1, 1))
    |        (1): ReLU(inplace=True)
    |      )
    |      (conv2): Sequential(
    |        (0): Conv2d(96, 32, kernel_size=(3, 3), stride=(1, 1), padding=(1, 1))
    |        (1): ReLU(inplace=True)
    |      )
    |      (conv3): Sequential(
    |        (0): Conv2d(128, 32, kernel_size=(3, 3), stride=(1, 1), padding=(1, 1))
    |        (1): ReLU(inplace=True)
    |      )
    |      (conv4): Sequential(
    |        (0): Conv2d(160, 32, kernel_size=(3, 3), stride=(1, 1), padding=(1, 1))
    |        (1): ReLU(inplace=True)
    |      )
    |      (conv5): Conv2d(192, 64, kernel_size=(3, 3), stride=(1, 1), padding=(1, 1))
    |    )
    |    (RDB3): ResidualDenseBlock_5C(
    |      (conv1): Sequential(
    |        (0): Conv2d(64, 32, kernel_size=(3, 3), stride=(1, 1), padding=(1, 1))
    |        (1): ReLU(inplace=True)
    |      )
    |      (conv2): Sequential(
    |        (0): Conv2d(96, 32, kernel_size=(3, 3), stride=(1, 1), padding=(1, 1))
    |        (1): ReLU(inplace=True)
    |      )
    |      (conv3): Sequential(
    |        (0): Conv2d(128, 32, kernel_size=(3, 3), stride=(1, 1), padding=(1, 1))
    |        (1): ReLU(inplace=True)
    |      )
    |      (conv4): Sequential(
    |        (0): Conv2d(160, 32, kernel_size=(3, 3), stride=(1, 1), padding=(1, 1))
    |        (1): ReLU(inplace=True)
    |      )
    |      (conv5): Conv2d(192, 64, kernel_size=(3, 3), stride=(1, 1), padding=(1, 1))
    |    )
    |  )
    |  (1): RRDB(
    |    (RDB1): ResidualDenseBlock_5C(
    |      (conv1): Sequential(
    |        (0): Conv2d(64, 32, kernel_size=(3, 3), stride=(1, 1), padding=(1, 1))
    |        (1): ReLU(inplace=True)
    |      )
    |      (conv2): Sequential(
    |        (0): Conv2d(96, 32, kernel_size=(3, 3), stride=(1, 1), padding=(1, 1))
    |        (1): ReLU(inplace=True)
    |      )
    |      (conv3): Sequential(
    |        (0): Conv2d(128, 32, kernel_size=(3, 3), stride=(1, 1), padding=(1, 1))
    |        (1): ReLU(inplace=True)
    |      )
    |      (conv4): Sequential(
    |        (0): Conv2d(160, 32, kernel_size=(3, 3), stride=(1, 1), padding=(1, 1))
    |        (1): ReLU(inplace=True)
    |      )
    |      (conv5): Conv2d(192, 64, kernel_size=(3, 3), stride=(1, 1), padding=(1, 1))
    |    )
    |    (RDB2): ResidualDenseBlock_5C(
    |      (conv1): Sequential(
    |        (0): Conv2d(64, 32, kernel_size=(3, 3), stride=(1, 1), padding=(1, 1))
    |        (1): ReLU(inplace=True)
    |      )
    |      (conv2): Sequential(
    |        (0): Conv2d(96, 32, kernel_size=(3, 3), stride=(1, 1), padding=(1, 1))
    |        (1): ReLU(inplace=True)
    |      )
    |      (conv3): Sequential(
    |        (0): Conv2d(128, 32, kernel_size=(3, 3), stride=(1, 1), padding=(1, 1))
    |        (1): ReLU(inplace=True)
    |      )
    |      (conv4): Sequential(
    |        (0): Conv2d(160, 32, kernel_size=(3, 3), stride=(1, 1), padding=(1, 1))
    |        (1): ReLU(inplace=True)
    |      )
    |      (conv5): Conv2d(192, 64, kernel_size=(3, 3), stride=(1, 1), padding=(1, 1))
    |    )
    |    (RDB3): ResidualDenseBlock_5C(
    |      (conv1): Sequential(
    |        (0): Conv2d(64, 32, kernel_size=(3, 3), stride=(1, 1), padding=(1, 1))
    |        (1): ReLU(inplace=True)
    |      )
    |      (conv2): Sequential(
    |        (0): Conv2d(96, 32, kernel_size=(3, 3), stride=(1, 1), padding=(1, 1))
    |        (1): ReLU(inplace=True)
    |      )
    |      (conv3): Sequential(
    |        (0): Conv2d(128, 32, kernel_size=(3, 3), stride=(1, 1), padding=(1, 1))
    |        (1): ReLU(inplace=True)
    |      )
    |      (conv4): Sequential(
    |        (0): Conv2d(160, 32, kernel_size=(3, 3), stride=(1, 1), padding=(1, 1))
    |        (1): ReLU(inplace=True)
    |      )
    |      (conv5): Conv2d(192, 64, kernel_size=(3, 3), stride=(1, 1), padding=(1, 1))
    |    )
    |  )
    |  (2): RRDB(
    |    (RDB1): ResidualDenseBlock_5C(
    |      (conv1): Sequential(
    |        (0): Conv2d(64, 32, kernel_size=(3, 3), stride=(1, 1), padding=(1, 1))
    |        (1): ReLU(inplace=True)
    |      )
    |      (conv2): Sequential(
    |        (0): Conv2d(96, 32, kernel_size=(3, 3), stride=(1, 1), padding=(1, 1))
    |        (1): ReLU(inplace=True)
    |      )
    |      (conv3): Sequential(
    |        (0): Conv2d(128, 32, kernel_size=(3, 3), stride=(1, 1), padding=(1, 1))
    |        (1): ReLU(inplace=True)
    |      )
    |      (conv4): Sequential(
    |        (0): Conv2d(160, 32, kernel_size=(3, 3), stride=(1, 1), padding=(1, 1))
    |        (1): ReLU(inplace=True)
    |      )
    |      (conv5): Conv2d(192, 64, kernel_size=(3, 3), stride=(1, 1), padding=(1, 1))
    |    )
    |    (RDB2): ResidualDenseBlock_5C(
    |      (conv1): Sequential(
    |        (0): Conv2d(64, 32, kernel_size=(3, 3), stride=(1, 1), padding=(1, 1))
    |        (1): ReLU(inplace=True)
    |      )
    |      (conv2): Sequential(
    |        (0): Conv2d(96, 32, kernel_size=(3, 3), stride=(1, 1), padding=(1, 1))
    |        (1): ReLU(inplace=True)
    |      )
    |      (conv3): Sequential(
    |        (0): Conv2d(128, 32, kernel_size=(3, 3), stride=(1, 1), padding=(1, 1))
    |        (1): ReLU(inplace=True)
    |      )
    |      (conv4): Sequential(
    |        (0): Conv2d(160, 32, kernel_size=(3, 3), stride=(1, 1), padding=(1, 1))
    |        (1): ReLU(inplace=True)
    |      )
    |      (conv5): Conv2d(192, 64, kernel_size=(3, 3), stride=(1, 1), padding=(1, 1))
    |    )
    |    (RDB3): ResidualDenseBlock_5C(
    |      (conv1): Sequential(
    |        (0): Conv2d(64, 32, kernel_size=(3, 3), stride=(1, 1), padding=(1, 1))
    |        (1): ReLU(inplace=True)
    |      )
    |      (conv2): Sequential(
    |        (0): Conv2d(96, 32, kernel_size=(3, 3), stride=(1, 1), padding=(1, 1))
    |        (1): ReLU(inplace=True)
    |      )
    |      (conv3): Sequential(
    |        (0): Conv2d(128, 32, kernel_size=(3, 3), stride=(1, 1), padding=(1, 1))
    |        (1): ReLU(inplace=True)
    |      )
    |      (conv4): Sequential(
    |        (0): Conv2d(160, 32, kernel_size=(3, 3), stride=(1, 1), padding=(1, 1))
    |        (1): ReLU(inplace=True)
    |      )
    |      (conv5): Conv2d(192, 64, kernel_size=(3, 3), stride=(1, 1), padding=(1, 1))
    |    )
    |  )
    |  (3): RRDB(
    |    (RDB1): ResidualDenseBlock_5C(
    |      (conv1): Sequential(
    |        (0): Conv2d(64, 32, kernel_size=(3, 3), stride=(1, 1), padding=(1, 1))
    |        (1): ReLU(inplace=True)
    |      )
    |      (conv2): Sequential(
    |        (0): Conv2d(96, 32, kernel_size=(3, 3), stride=(1, 1), padding=(1, 1))
    |        (1): ReLU(inplace=True)
    |      )
    |      (conv3): Sequential(
    |        (0): Conv2d(128, 32, kernel_size=(3, 3), stride=(1, 1), padding=(1, 1))
    |        (1): ReLU(inplace=True)
    |      )
    |      (conv4): Sequential(
    |        (0): Conv2d(160, 32, kernel_size=(3, 3), stride=(1, 1), padding=(1, 1))
    |        (1): ReLU(inplace=True)
    |      )
    |      (conv5): Conv2d(192, 64, kernel_size=(3, 3), stride=(1, 1), padding=(1, 1))
    |    )
    |    (RDB2): ResidualDenseBlock_5C(
    |      (conv1): Sequential(
    |        (0): Conv2d(64, 32, kernel_size=(3, 3), stride=(1, 1), padding=(1, 1))
    |        (1): ReLU(inplace=True)
    |      )
    |      (conv2): Sequential(
    |        (0): Conv2d(96, 32, kernel_size=(3, 3), stride=(1, 1), padding=(1, 1))
    |        (1): ReLU(inplace=True)
    |      )
    |      (conv3): Sequential(
    |        (0): Conv2d(128, 32, kernel_size=(3, 3), stride=(1, 1), padding=(1, 1))
    |        (1): ReLU(inplace=True)
    |      )
    |      (conv4): Sequential(
    |        (0): Conv2d(160, 32, kernel_size=(3, 3), stride=(1, 1), padding=(1, 1))
    |        (1): ReLU(inplace=True)
    |      )
    |      (conv5): Conv2d(192, 64, kernel_size=(3, 3), stride=(1, 1), padding=(1, 1))
    |    )
    |    (RDB3): ResidualDenseBlock_5C(
    |      (conv1): Sequential(
    |        (0): Conv2d(64, 32, kernel_size=(3, 3), stride=(1, 1), padding=(1, 1))
    |        (1): ReLU(inplace=True)
    |      )
    |      (conv2): Sequential(
    |        (0): Conv2d(96, 32, kernel_size=(3, 3), stride=(1, 1), padding=(1, 1))
    |        (1): ReLU(inplace=True)
    |      )
    |      (conv3): Sequential(
    |        (0): Conv2d(128, 32, kernel_size=(3, 3), stride=(1, 1), padding=(1, 1))
    |        (1): ReLU(inplace=True)
    |      )
    |      (conv4): Sequential(
    |        (0): Conv2d(160, 32, kernel_size=(3, 3), stride=(1, 1), padding=(1, 1))
    |        (1): ReLU(inplace=True)
    |      )
    |      (conv5): Conv2d(192, 64, kernel_size=(3, 3), stride=(1, 1), padding=(1, 1))
    |    )
    |  )
    |  (4): RRDB(
    |    (RDB1): ResidualDenseBlock_5C(
    |      (conv1): Sequential(
    |        (0): Conv2d(64, 32, kernel_size=(3, 3), stride=(1, 1), padding=(1, 1))
    |        (1): ReLU(inplace=True)
    |      )
    |      (conv2): Sequential(
    |        (0): Conv2d(96, 32, kernel_size=(3, 3), stride=(1, 1), padding=(1, 1))
    |        (1): ReLU(inplace=True)
    |      )
    |      (conv3): Sequential(
    |        (0): Conv2d(128, 32, kernel_size=(3, 3), stride=(1, 1), padding=(1, 1))
    |        (1): ReLU(inplace=True)
    |      )
    |      (conv4): Sequential(
    |        (0): Conv2d(160, 32, kernel_size=(3, 3), stride=(1, 1), padding=(1, 1))
    |        (1): ReLU(inplace=True)
    |      )
    |      (conv5): Conv2d(192, 64, kernel_size=(3, 3), stride=(1, 1), padding=(1, 1))
    |    )
    |    (RDB2): ResidualDenseBlock_5C(
    |      (conv1): Sequential(
    |        (0): Conv2d(64, 32, kernel_size=(3, 3), stride=(1, 1), padding=(1, 1))
    |        (1): ReLU(inplace=True)
    |      )
    |      (conv2): Sequential(
    |        (0): Conv2d(96, 32, kernel_size=(3, 3), stride=(1, 1), padding=(1, 1))
    |        (1): ReLU(inplace=True)
    |      )
    |      (conv3): Sequential(
    |        (0): Conv2d(128, 32, kernel_size=(3, 3), stride=(1, 1), padding=(1, 1))
    |        (1): ReLU(inplace=True)
    |      )
    |      (conv4): Sequential(
    |        (0): Conv2d(160, 32, kernel_size=(3, 3), stride=(1, 1), padding=(1, 1))
    |        (1): ReLU(inplace=True)
    |      )
    |      (conv5): Conv2d(192, 64, kernel_size=(3, 3), stride=(1, 1), padding=(1, 1))
    |    )
    |    (RDB3): ResidualDenseBlock_5C(
    |      (conv1): Sequential(
    |        (0): Conv2d(64, 32, kernel_size=(3, 3), stride=(1, 1), padding=(1, 1))
    |        (1): ReLU(inplace=True)
    |      )
    |      (conv2): Sequential(
    |        (0): Conv2d(96, 32, kernel_size=(3, 3), stride=(1, 1), padding=(1, 1))
    |        (1): ReLU(inplace=True)
    |      )
    |      (conv3): Sequential(
    |        (0): Conv2d(128, 32, kernel_size=(3, 3), stride=(1, 1), padding=(1, 1))
    |        (1): ReLU(inplace=True)
    |      )
    |      (conv4): Sequential(
    |        (0): Conv2d(160, 32, kernel_size=(3, 3), stride=(1, 1), padding=(1, 1))
    |        (1): ReLU(inplace=True)
    |      )
    |      (conv5): Conv2d(192, 64, kernel_size=(3, 3), stride=(1, 1), padding=(1, 1))
    |    )
    |  )
    |  (5): RRDB(
    |    (RDB1): ResidualDenseBlock_5C(
    |      (conv1): Sequential(
    |        (0): Conv2d(64, 32, kernel_size=(3, 3), stride=(1, 1), padding=(1, 1))
    |        (1): ReLU(inplace=True)
    |      )
    |      (conv2): Sequential(
    |        (0): Conv2d(96, 32, kernel_size=(3, 3), stride=(1, 1), padding=(1, 1))
    |        (1): ReLU(inplace=True)
    |      )
    |      (conv3): Sequential(
    |        (0): Conv2d(128, 32, kernel_size=(3, 3), stride=(1, 1), padding=(1, 1))
    |        (1): ReLU(inplace=True)
    |      )
    |      (conv4): Sequential(
    |        (0): Conv2d(160, 32, kernel_size=(3, 3), stride=(1, 1), padding=(1, 1))
    |        (1): ReLU(inplace=True)
    |      )
    |      (conv5): Conv2d(192, 64, kernel_size=(3, 3), stride=(1, 1), padding=(1, 1))
    |    )
    |    (RDB2): ResidualDenseBlock_5C(
    |      (conv1): Sequential(
    |        (0): Conv2d(64, 32, kernel_size=(3, 3), stride=(1, 1), padding=(1, 1))
    |        (1): ReLU(inplace=True)
    |      )
    |      (conv2): Sequential(
    |        (0): Conv2d(96, 32, kernel_size=(3, 3), stride=(1, 1), padding=(1, 1))
    |        (1): ReLU(inplace=True)
    |      )
    |      (conv3): Sequential(
    |        (0): Conv2d(128, 32, kernel_size=(3, 3), stride=(1, 1), padding=(1, 1))
    |        (1): ReLU(inplace=True)
    |      )
    |      (conv4): Sequential(
    |        (0): Conv2d(160, 32, kernel_size=(3, 3), stride=(1, 1), padding=(1, 1))
    |        (1): ReLU(inplace=True)
    |      )
    |      (conv5): Conv2d(192, 64, kernel_size=(3, 3), stride=(1, 1), padding=(1, 1))
    |    )
    |    (RDB3): ResidualDenseBlock_5C(
    |      (conv1): Sequential(
    |        (0): Conv2d(64, 32, kernel_size=(3, 3), stride=(1, 1), padding=(1, 1))
    |        (1): ReLU(inplace=True)
    |      )
    |      (conv2): Sequential(
    |        (0): Conv2d(96, 32, kernel_size=(3, 3), stride=(1, 1), padding=(1, 1))
    |        (1): ReLU(inplace=True)
    |      )
    |      (conv3): Sequential(
    |        (0): Conv2d(128, 32, kernel_size=(3, 3), stride=(1, 1), padding=(1, 1))
    |        (1): ReLU(inplace=True)
    |      )
    |      (conv4): Sequential(
    |        (0): Conv2d(160, 32, kernel_size=(3, 3), stride=(1, 1), padding=(1, 1))
    |        (1): ReLU(inplace=True)
    |      )
    |      (conv5): Conv2d(192, 64, kernel_size=(3, 3), stride=(1, 1), padding=(1, 1))
    |    )
    |  )
    |  (6): RRDB(
    |    (RDB1): ResidualDenseBlock_5C(
    |      (conv1): Sequential(
    |        (0): Conv2d(64, 32, kernel_size=(3, 3), stride=(1, 1), padding=(1, 1))
    |        (1): ReLU(inplace=True)
    |      )
    |      (conv2): Sequential(
    |        (0): Conv2d(96, 32, kernel_size=(3, 3), stride=(1, 1), padding=(1, 1))
    |        (1): ReLU(inplace=True)
    |      )
    |      (conv3): Sequential(
    |        (0): Conv2d(128, 32, kernel_size=(3, 3), stride=(1, 1), padding=(1, 1))
    |        (1): ReLU(inplace=True)
    |      )
    |      (conv4): Sequential(
    |        (0): Conv2d(160, 32, kernel_size=(3, 3), stride=(1, 1), padding=(1, 1))
    |        (1): ReLU(inplace=True)
    |      )
    |      (conv5): Conv2d(192, 64, kernel_size=(3, 3), stride=(1, 1), padding=(1, 1))
    |    )
    |    (RDB2): ResidualDenseBlock_5C(
    |      (conv1): Sequential(
    |        (0): Conv2d(64, 32, kernel_size=(3, 3), stride=(1, 1), padding=(1, 1))
    |        (1): ReLU(inplace=True)
    |      )
    |      (conv2): Sequential(
    |        (0): Conv2d(96, 32, kernel_size=(3, 3), stride=(1, 1), padding=(1, 1))
    |        (1): ReLU(inplace=True)
    |      )
    |      (conv3): Sequential(
    |        (0): Conv2d(128, 32, kernel_size=(3, 3), stride=(1, 1), padding=(1, 1))
    |        (1): ReLU(inplace=True)
    |      )
    |      (conv4): Sequential(
    |        (0): Conv2d(160, 32, kernel_size=(3, 3), stride=(1, 1), padding=(1, 1))
    |        (1): ReLU(inplace=True)
    |      )
    |      (conv5): Conv2d(192, 64, kernel_size=(3, 3), stride=(1, 1), padding=(1, 1))
    |    )
    |    (RDB3): ResidualDenseBlock_5C(
    |      (conv1): Sequential(
    |        (0): Conv2d(64, 32, kernel_size=(3, 3), stride=(1, 1), padding=(1, 1))
    |        (1): ReLU(inplace=True)
    |      )
    |      (conv2): Sequential(
    |        (0): Conv2d(96, 32, kernel_size=(3, 3), stride=(1, 1), padding=(1, 1))
    |        (1): ReLU(inplace=True)
    |      )
    |      (conv3): Sequential(
    |        (0): Conv2d(128, 32, kernel_size=(3, 3), stride=(1, 1), padding=(1, 1))
    |        (1): ReLU(inplace=True)
    |      )
    |      (conv4): Sequential(
    |        (0): Conv2d(160, 32, kernel_size=(3, 3), stride=(1, 1), padding=(1, 1))
    |        (1): ReLU(inplace=True)
    |      )
    |      (conv5): Conv2d(192, 64, kernel_size=(3, 3), stride=(1, 1), padding=(1, 1))
    |    )
    |  )
    |  (7): RRDB(
    |    (RDB1): ResidualDenseBlock_5C(
    |      (conv1): Sequential(
    |        (0): Conv2d(64, 32, kernel_size=(3, 3), stride=(1, 1), padding=(1, 1))
    |        (1): ReLU(inplace=True)
    |      )
    |      (conv2): Sequential(
    |        (0): Conv2d(96, 32, kernel_size=(3, 3), stride=(1, 1), padding=(1, 1))
    |        (1): ReLU(inplace=True)
    |      )
    |      (conv3): Sequential(
    |        (0): Conv2d(128, 32, kernel_size=(3, 3), stride=(1, 1), padding=(1, 1))
    |        (1): ReLU(inplace=True)
    |      )
    |      (conv4): Sequential(
    |        (0): Conv2d(160, 32, kernel_size=(3, 3), stride=(1, 1), padding=(1, 1))
    |        (1): ReLU(inplace=True)
    |      )
    |      (conv5): Conv2d(192, 64, kernel_size=(3, 3), stride=(1, 1), padding=(1, 1))
    |    )
    |    (RDB2): ResidualDenseBlock_5C(
    |      (conv1): Sequential(
    |        (0): Conv2d(64, 32, kernel_size=(3, 3), stride=(1, 1), padding=(1, 1))
    |        (1): ReLU(inplace=True)
    |      )
    |      (conv2): Sequential(
    |        (0): Conv2d(96, 32, kernel_size=(3, 3), stride=(1, 1), padding=(1, 1))
    |        (1): ReLU(inplace=True)
    |      )
    |      (conv3): Sequential(
    |        (0): Conv2d(128, 32, kernel_size=(3, 3), stride=(1, 1), padding=(1, 1))
    |        (1): ReLU(inplace=True)
    |      )
    |      (conv4): Sequential(
    |        (0): Conv2d(160, 32, kernel_size=(3, 3), stride=(1, 1), padding=(1, 1))
    |        (1): ReLU(inplace=True)
    |      )
    |      (conv5): Conv2d(192, 64, kernel_size=(3, 3), stride=(1, 1), padding=(1, 1))
    |    )
    |    (RDB3): ResidualDenseBlock_5C(
    |      (conv1): Sequential(
    |        (0): Conv2d(64, 32, kernel_size=(3, 3), stride=(1, 1), padding=(1, 1))
    |        (1): ReLU(inplace=True)
    |      )
    |      (conv2): Sequential(
    |        (0): Conv2d(96, 32, kernel_size=(3, 3), stride=(1, 1), padding=(1, 1))
    |        (1): ReLU(inplace=True)
    |      )
    |      (conv3): Sequential(
    |        (0): Conv2d(128, 32, kernel_size=(3, 3), stride=(1, 1), padding=(1, 1))
    |        (1): ReLU(inplace=True)
    |      )
    |      (conv4): Sequential(
    |        (0): Conv2d(160, 32, kernel_size=(3, 3), stride=(1, 1), padding=(1, 1))
    |        (1): ReLU(inplace=True)
    |      )
    |      (conv5): Conv2d(192, 64, kernel_size=(3, 3), stride=(1, 1), padding=(1, 1))
    |    )
    |  )
    |  (8): RRDB(
    |    (RDB1): ResidualDenseBlock_5C(
    |      (conv1): Sequential(
    |        (0): Conv2d(64, 32, kernel_size=(3, 3), stride=(1, 1), padding=(1, 1))
    |        (1): ReLU(inplace=True)
    |      )
    |      (conv2): Sequential(
    |        (0): Conv2d(96, 32, kernel_size=(3, 3), stride=(1, 1), padding=(1, 1))
    |        (1): ReLU(inplace=True)
    |      )
    |      (conv3): Sequential(
    |        (0): Conv2d(128, 32, kernel_size=(3, 3), stride=(1, 1), padding=(1, 1))
    |        (1): ReLU(inplace=True)
    |      )
    |      (conv4): Sequential(
    |        (0): Conv2d(160, 32, kernel_size=(3, 3), stride=(1, 1), padding=(1, 1))
    |        (1): ReLU(inplace=True)
    |      )
    |      (conv5): Conv2d(192, 64, kernel_size=(3, 3), stride=(1, 1), padding=(1, 1))
    |    )
    |    (RDB2): ResidualDenseBlock_5C(
    |      (conv1): Sequential(
    |        (0): Conv2d(64, 32, kernel_size=(3, 3), stride=(1, 1), padding=(1, 1))
    |        (1): ReLU(inplace=True)
    |      )
    |      (conv2): Sequential(
    |        (0): Conv2d(96, 32, kernel_size=(3, 3), stride=(1, 1), padding=(1, 1))
    |        (1): ReLU(inplace=True)
    |      )
    |      (conv3): Sequential(
    |        (0): Conv2d(128, 32, kernel_size=(3, 3), stride=(1, 1), padding=(1, 1))
    |        (1): ReLU(inplace=True)
    |      )
    |      (conv4): Sequential(
    |        (0): Conv2d(160, 32, kernel_size=(3, 3), stride=(1, 1), padding=(1, 1))
    |        (1): ReLU(inplace=True)
    |      )
    |      (conv5): Conv2d(192, 64, kernel_size=(3, 3), stride=(1, 1), padding=(1, 1))
    |    )
    |    (RDB3): ResidualDenseBlock_5C(
    |      (conv1): Sequential(
    |        (0): Conv2d(64, 32, kernel_size=(3, 3), stride=(1, 1), padding=(1, 1))
    |        (1): ReLU(inplace=True)
    |      )
    |      (conv2): Sequential(
    |        (0): Conv2d(96, 32, kernel_size=(3, 3), stride=(1, 1), padding=(1, 1))
    |        (1): ReLU(inplace=True)
    |      )
    |      (conv3): Sequential(
    |        (0): Conv2d(128, 32, kernel_size=(3, 3), stride=(1, 1), padding=(1, 1))
    |        (1): ReLU(inplace=True)
    |      )
    |      (conv4): Sequential(
    |        (0): Conv2d(160, 32, kernel_size=(3, 3), stride=(1, 1), padding=(1, 1))
    |        (1): ReLU(inplace=True)
    |      )
    |      (conv5): Conv2d(192, 64, kernel_size=(3, 3), stride=(1, 1), padding=(1, 1))
    |    )
    |  )
    |  (9): RRDB(
    |    (RDB1): ResidualDenseBlock_5C(
    |      (conv1): Sequential(
    |        (0): Conv2d(64, 32, kernel_size=(3, 3), stride=(1, 1), padding=(1, 1))
    |        (1): ReLU(inplace=True)
    |      )
    |      (conv2): Sequential(
    |        (0): Conv2d(96, 32, kernel_size=(3, 3), stride=(1, 1), padding=(1, 1))
    |        (1): ReLU(inplace=True)
    |      )
    |      (conv3): Sequential(
    |        (0): Conv2d(128, 32, kernel_size=(3, 3), stride=(1, 1), padding=(1, 1))
    |        (1): ReLU(inplace=True)
    |      )
    |      (conv4): Sequential(
    |        (0): Conv2d(160, 32, kernel_size=(3, 3), stride=(1, 1), padding=(1, 1))
    |        (1): ReLU(inplace=True)
    |      )
    |      (conv5): Conv2d(192, 64, kernel_size=(3, 3), stride=(1, 1), padding=(1, 1))
    |    )
    |    (RDB2): ResidualDenseBlock_5C(
    |      (conv1): Sequential(
    |        (0): Conv2d(64, 32, kernel_size=(3, 3), stride=(1, 1), padding=(1, 1))
    |        (1): ReLU(inplace=True)
    |      )
    |      (conv2): Sequential(
    |        (0): Conv2d(96, 32, kernel_size=(3, 3), stride=(1, 1), padding=(1, 1))
    |        (1): ReLU(inplace=True)
    |      )
    |      (conv3): Sequential(
    |        (0): Conv2d(128, 32, kernel_size=(3, 3), stride=(1, 1), padding=(1, 1))
    |        (1): ReLU(inplace=True)
    |      )
    |      (conv4): Sequential(
    |        (0): Conv2d(160, 32, kernel_size=(3, 3), stride=(1, 1), padding=(1, 1))
    |        (1): ReLU(inplace=True)
    |      )
    |      (conv5): Conv2d(192, 64, kernel_size=(3, 3), stride=(1, 1), padding=(1, 1))
    |    )
    |    (RDB3): ResidualDenseBlock_5C(
    |      (conv1): Sequential(
    |        (0): Conv2d(64, 32, kernel_size=(3, 3), stride=(1, 1), padding=(1, 1))
    |        (1): ReLU(inplace=True)
    |      )
    |      (conv2): Sequential(
    |        (0): Conv2d(96, 32, kernel_size=(3, 3), stride=(1, 1), padding=(1, 1))
    |        (1): ReLU(inplace=True)
    |      )
    |      (conv3): Sequential(
    |        (0): Conv2d(128, 32, kernel_size=(3, 3), stride=(1, 1), padding=(1, 1))
    |        (1): ReLU(inplace=True)
    |      )
    |      (conv4): Sequential(
    |        (0): Conv2d(160, 32, kernel_size=(3, 3), stride=(1, 1), padding=(1, 1))
    |        (1): ReLU(inplace=True)
    |      )
    |      (conv5): Conv2d(192, 64, kernel_size=(3, 3), stride=(1, 1), padding=(1, 1))
    |    )
    |  )
    |  (10): RRDB(
    |    (RDB1): ResidualDenseBlock_5C(
    |      (conv1): Sequential(
    |        (0): Conv2d(64, 32, kernel_size=(3, 3), stride=(1, 1), padding=(1, 1))
    |        (1): ReLU(inplace=True)
    |      )
    |      (conv2): Sequential(
    |        (0): Conv2d(96, 32, kernel_size=(3, 3), stride=(1, 1), padding=(1, 1))
    |        (1): ReLU(inplace=True)
    |      )
    |      (conv3): Sequential(
    |        (0): Conv2d(128, 32, kernel_size=(3, 3), stride=(1, 1), padding=(1, 1))
    |        (1): ReLU(inplace=True)
    |      )
    |      (conv4): Sequential(
    |        (0): Conv2d(160, 32, kernel_size=(3, 3), stride=(1, 1), padding=(1, 1))
    |        (1): ReLU(inplace=True)
    |      )
    |      (conv5): Conv2d(192, 64, kernel_size=(3, 3), stride=(1, 1), padding=(1, 1))
    |    )
    |    (RDB2): ResidualDenseBlock_5C(
    |      (conv1): Sequential(
    |        (0): Conv2d(64, 32, kernel_size=(3, 3), stride=(1, 1), padding=(1, 1))
    |        (1): ReLU(inplace=True)
    |      )
    |      (conv2): Sequential(
    |        (0): Conv2d(96, 32, kernel_size=(3, 3), stride=(1, 1), padding=(1, 1))
    |        (1): ReLU(inplace=True)
    |      )
    |      (conv3): Sequential(
    |        (0): Conv2d(128, 32, kernel_size=(3, 3), stride=(1, 1), padding=(1, 1))
    |        (1): ReLU(inplace=True)
    |      )
    |      (conv4): Sequential(
    |        (0): Conv2d(160, 32, kernel_size=(3, 3), stride=(1, 1), padding=(1, 1))
    |        (1): ReLU(inplace=True)
    |      )
    |      (conv5): Conv2d(192, 64, kernel_size=(3, 3), stride=(1, 1), padding=(1, 1))
    |    )
    |    (RDB3): ResidualDenseBlock_5C(
    |      (conv1): Sequential(
    |        (0): Conv2d(64, 32, kernel_size=(3, 3), stride=(1, 1), padding=(1, 1))
    |        (1): ReLU(inplace=True)
    |      )
    |      (conv2): Sequential(
    |        (0): Conv2d(96, 32, kernel_size=(3, 3), stride=(1, 1), padding=(1, 1))
    |        (1): ReLU(inplace=True)
    |      )
    |      (conv3): Sequential(
    |        (0): Conv2d(128, 32, kernel_size=(3, 3), stride=(1, 1), padding=(1, 1))
    |        (1): ReLU(inplace=True)
    |      )
    |      (conv4): Sequential(
    |        (0): Conv2d(160, 32, kernel_size=(3, 3), stride=(1, 1), padding=(1, 1))
    |        (1): ReLU(inplace=True)
    |      )
    |      (conv5): Conv2d(192, 64, kernel_size=(3, 3), stride=(1, 1), padding=(1, 1))
    |    )
    |  )
    |  (11): RRDB(
    |    (RDB1): ResidualDenseBlock_5C(
    |      (conv1): Sequential(
    |        (0): Conv2d(64, 32, kernel_size=(3, 3), stride=(1, 1), padding=(1, 1))
    |        (1): ReLU(inplace=True)
    |      )
    |      (conv2): Sequential(
    |        (0): Conv2d(96, 32, kernel_size=(3, 3), stride=(1, 1), padding=(1, 1))
    |        (1): ReLU(inplace=True)
    |      )
    |      (conv3): Sequential(
    |        (0): Conv2d(128, 32, kernel_size=(3, 3), stride=(1, 1), padding=(1, 1))
    |        (1): ReLU(inplace=True)
    |      )
    |      (conv4): Sequential(
    |        (0): Conv2d(160, 32, kernel_size=(3, 3), stride=(1, 1), padding=(1, 1))
    |        (1): ReLU(inplace=True)
    |      )
    |      (conv5): Conv2d(192, 64, kernel_size=(3, 3), stride=(1, 1), padding=(1, 1))
    |    )
    |    (RDB2): ResidualDenseBlock_5C(
    |      (conv1): Sequential(
    |        (0): Conv2d(64, 32, kernel_size=(3, 3), stride=(1, 1), padding=(1, 1))
    |        (1): ReLU(inplace=True)
    |      )
    |      (conv2): Sequential(
    |        (0): Conv2d(96, 32, kernel_size=(3, 3), stride=(1, 1), padding=(1, 1))
    |        (1): ReLU(inplace=True)
    |      )
    |      (conv3): Sequential(
    |        (0): Conv2d(128, 32, kernel_size=(3, 3), stride=(1, 1), padding=(1, 1))
    |        (1): ReLU(inplace=True)
    |      )
    |      (conv4): Sequential(
    |        (0): Conv2d(160, 32, kernel_size=(3, 3), stride=(1, 1), padding=(1, 1))
    |        (1): ReLU(inplace=True)
    |      )
    |      (conv5): Conv2d(192, 64, kernel_size=(3, 3), stride=(1, 1), padding=(1, 1))
    |    )
    |    (RDB3): ResidualDenseBlock_5C(
    |      (conv1): Sequential(
    |        (0): Conv2d(64, 32, kernel_size=(3, 3), stride=(1, 1), padding=(1, 1))
    |        (1): ReLU(inplace=True)
    |      )
    |      (conv2): Sequential(
    |        (0): Conv2d(96, 32, kernel_size=(3, 3), stride=(1, 1), padding=(1, 1))
    |        (1): ReLU(inplace=True)
    |      )
    |      (conv3): Sequential(
    |        (0): Conv2d(128, 32, kernel_size=(3, 3), stride=(1, 1), padding=(1, 1))
    |        (1): ReLU(inplace=True)
    |      )
    |      (conv4): Sequential(
    |        (0): Conv2d(160, 32, kernel_size=(3, 3), stride=(1, 1), padding=(1, 1))
    |        (1): ReLU(inplace=True)
    |      )
    |      (conv5): Conv2d(192, 64, kernel_size=(3, 3), stride=(1, 1), padding=(1, 1))
    |    )
    |  )
    |  (12): RRDB(
    |    (RDB1): ResidualDenseBlock_5C(
    |      (conv1): Sequential(
    |        (0): Conv2d(64, 32, kernel_size=(3, 3), stride=(1, 1), padding=(1, 1))
    |        (1): ReLU(inplace=True)
    |      )
    |      (conv2): Sequential(
    |        (0): Conv2d(96, 32, kernel_size=(3, 3), stride=(1, 1), padding=(1, 1))
    |        (1): ReLU(inplace=True)
    |      )
    |      (conv3): Sequential(
    |        (0): Conv2d(128, 32, kernel_size=(3, 3), stride=(1, 1), padding=(1, 1))
    |        (1): ReLU(inplace=True)
    |      )
    |      (conv4): Sequential(
    |        (0): Conv2d(160, 32, kernel_size=(3, 3), stride=(1, 1), padding=(1, 1))
    |        (1): ReLU(inplace=True)
    |      )
    |      (conv5): Conv2d(192, 64, kernel_size=(3, 3), stride=(1, 1), padding=(1, 1))
    |    )
    |    (RDB2): ResidualDenseBlock_5C(
    |      (conv1): Sequential(
    |        (0): Conv2d(64, 32, kernel_size=(3, 3), stride=(1, 1), padding=(1, 1))
    |        (1): ReLU(inplace=True)
    |      )
    |      (conv2): Sequential(
    |        (0): Conv2d(96, 32, kernel_size=(3, 3), stride=(1, 1), padding=(1, 1))
    |        (1): ReLU(inplace=True)
    |      )
    |      (conv3): Sequential(
    |        (0): Conv2d(128, 32, kernel_size=(3, 3), stride=(1, 1), padding=(1, 1))
    |        (1): ReLU(inplace=True)
    |      )
    |      (conv4): Sequential(
    |        (0): Conv2d(160, 32, kernel_size=(3, 3), stride=(1, 1), padding=(1, 1))
    |        (1): ReLU(inplace=True)
    |      )
    |      (conv5): Conv2d(192, 64, kernel_size=(3, 3), stride=(1, 1), padding=(1, 1))
    |    )
    |    (RDB3): ResidualDenseBlock_5C(
    |      (conv1): Sequential(
    |        (0): Conv2d(64, 32, kernel_size=(3, 3), stride=(1, 1), padding=(1, 1))
    |        (1): ReLU(inplace=True)
    |      )
    |      (conv2): Sequential(
    |        (0): Conv2d(96, 32, kernel_size=(3, 3), stride=(1, 1), padding=(1, 1))
    |        (1): ReLU(inplace=True)
    |      )
    |      (conv3): Sequential(
    |        (0): Conv2d(128, 32, kernel_size=(3, 3), stride=(1, 1), padding=(1, 1))
    |        (1): ReLU(inplace=True)
    |      )
    |      (conv4): Sequential(
    |        (0): Conv2d(160, 32, kernel_size=(3, 3), stride=(1, 1), padding=(1, 1))
    |        (1): ReLU(inplace=True)
    |      )
    |      (conv5): Conv2d(192, 64, kernel_size=(3, 3), stride=(1, 1), padding=(1, 1))
    |    )
    |  )
    |  (13): RRDB(
    |    (RDB1): ResidualDenseBlock_5C(
    |      (conv1): Sequential(
    |        (0): Conv2d(64, 32, kernel_size=(3, 3), stride=(1, 1), padding=(1, 1))
    |        (1): ReLU(inplace=True)
    |      )
    |      (conv2): Sequential(
    |        (0): Conv2d(96, 32, kernel_size=(3, 3), stride=(1, 1), padding=(1, 1))
    |        (1): ReLU(inplace=True)
    |      )
    |      (conv3): Sequential(
    |        (0): Conv2d(128, 32, kernel_size=(3, 3), stride=(1, 1), padding=(1, 1))
    |        (1): ReLU(inplace=True)
    |      )
    |      (conv4): Sequential(
    |        (0): Conv2d(160, 32, kernel_size=(3, 3), stride=(1, 1), padding=(1, 1))
    |        (1): ReLU(inplace=True)
    |      )
    |      (conv5): Conv2d(192, 64, kernel_size=(3, 3), stride=(1, 1), padding=(1, 1))
    |    )
    |    (RDB2): ResidualDenseBlock_5C(
    |      (conv1): Sequential(
    |        (0): Conv2d(64, 32, kernel_size=(3, 3), stride=(1, 1), padding=(1, 1))
    |        (1): ReLU(inplace=True)
    |      )
    |      (conv2): Sequential(
    |        (0): Conv2d(96, 32, kernel_size=(3, 3), stride=(1, 1), padding=(1, 1))
    |        (1): ReLU(inplace=True)
    |      )
    |      (conv3): Sequential(
    |        (0): Conv2d(128, 32, kernel_size=(3, 3), stride=(1, 1), padding=(1, 1))
    |        (1): ReLU(inplace=True)
    |      )
    |      (conv4): Sequential(
    |        (0): Conv2d(160, 32, kernel_size=(3, 3), stride=(1, 1), padding=(1, 1))
    |        (1): ReLU(inplace=True)
    |      )
    |      (conv5): Conv2d(192, 64, kernel_size=(3, 3), stride=(1, 1), padding=(1, 1))
    |    )
    |    (RDB3): ResidualDenseBlock_5C(
    |      (conv1): Sequential(
    |        (0): Conv2d(64, 32, kernel_size=(3, 3), stride=(1, 1), padding=(1, 1))
    |        (1): ReLU(inplace=True)
    |      )
    |      (conv2): Sequential(
    |        (0): Conv2d(96, 32, kernel_size=(3, 3), stride=(1, 1), padding=(1, 1))
    |        (1): ReLU(inplace=True)
    |      )
    |      (conv3): Sequential(
    |        (0): Conv2d(128, 32, kernel_size=(3, 3), stride=(1, 1), padding=(1, 1))
    |        (1): ReLU(inplace=True)
    |      )
    |      (conv4): Sequential(
    |        (0): Conv2d(160, 32, kernel_size=(3, 3), stride=(1, 1), padding=(1, 1))
    |        (1): ReLU(inplace=True)
    |      )
    |      (conv5): Conv2d(192, 64, kernel_size=(3, 3), stride=(1, 1), padding=(1, 1))
    |    )
    |  )
    |  (14): RRDB(
    |    (RDB1): ResidualDenseBlock_5C(
    |      (conv1): Sequential(
    |        (0): Conv2d(64, 32, kernel_size=(3, 3), stride=(1, 1), padding=(1, 1))
    |        (1): ReLU(inplace=True)
    |      )
    |      (conv2): Sequential(
    |        (0): Conv2d(96, 32, kernel_size=(3, 3), stride=(1, 1), padding=(1, 1))
    |        (1): ReLU(inplace=True)
    |      )
    |      (conv3): Sequential(
    |        (0): Conv2d(128, 32, kernel_size=(3, 3), stride=(1, 1), padding=(1, 1))
    |        (1): ReLU(inplace=True)
    |      )
    |      (conv4): Sequential(
    |        (0): Conv2d(160, 32, kernel_size=(3, 3), stride=(1, 1), padding=(1, 1))
    |        (1): ReLU(inplace=True)
    |      )
    |      (conv5): Conv2d(192, 64, kernel_size=(3, 3), stride=(1, 1), padding=(1, 1))
    |    )
    |    (RDB2): ResidualDenseBlock_5C(
    |      (conv1): Sequential(
    |        (0): Conv2d(64, 32, kernel_size=(3, 3), stride=(1, 1), padding=(1, 1))
    |        (1): ReLU(inplace=True)
    |      )
    |      (conv2): Sequential(
    |        (0): Conv2d(96, 32, kernel_size=(3, 3), stride=(1, 1), padding=(1, 1))
    |        (1): ReLU(inplace=True)
    |      )
    |      (conv3): Sequential(
    |        (0): Conv2d(128, 32, kernel_size=(3, 3), stride=(1, 1), padding=(1, 1))
    |        (1): ReLU(inplace=True)
    |      )
    |      (conv4): Sequential(
    |        (0): Conv2d(160, 32, kernel_size=(3, 3), stride=(1, 1), padding=(1, 1))
    |        (1): ReLU(inplace=True)
    |      )
    |      (conv5): Conv2d(192, 64, kernel_size=(3, 3), stride=(1, 1), padding=(1, 1))
    |    )
    |    (RDB3): ResidualDenseBlock_5C(
    |      (conv1): Sequential(
    |        (0): Conv2d(64, 32, kernel_size=(3, 3), stride=(1, 1), padding=(1, 1))
    |        (1): ReLU(inplace=True)
    |      )
    |      (conv2): Sequential(
    |        (0): Conv2d(96, 32, kernel_size=(3, 3), stride=(1, 1), padding=(1, 1))
    |        (1): ReLU(inplace=True)
    |      )
    |      (conv3): Sequential(
    |        (0): Conv2d(128, 32, kernel_size=(3, 3), stride=(1, 1), padding=(1, 1))
    |        (1): ReLU(inplace=True)
    |      )
    |      (conv4): Sequential(
    |        (0): Conv2d(160, 32, kernel_size=(3, 3), stride=(1, 1), padding=(1, 1))
    |        (1): ReLU(inplace=True)
    |      )
    |      (conv5): Conv2d(192, 64, kernel_size=(3, 3), stride=(1, 1), padding=(1, 1))
    |    )
    |  )
    |  (15): RRDB(
    |    (RDB1): ResidualDenseBlock_5C(
    |      (conv1): Sequential(
    |        (0): Conv2d(64, 32, kernel_size=(3, 3), stride=(1, 1), padding=(1, 1))
    |        (1): ReLU(inplace=True)
    |      )
    |      (conv2): Sequential(
    |        (0): Conv2d(96, 32, kernel_size=(3, 3), stride=(1, 1), padding=(1, 1))
    |        (1): ReLU(inplace=True)
    |      )
    |      (conv3): Sequential(
    |        (0): Conv2d(128, 32, kernel_size=(3, 3), stride=(1, 1), padding=(1, 1))
    |        (1): ReLU(inplace=True)
    |      )
    |      (conv4): Sequential(
    |        (0): Conv2d(160, 32, kernel_size=(3, 3), stride=(1, 1), padding=(1, 1))
    |        (1): ReLU(inplace=True)
    |      )
    |      (conv5): Conv2d(192, 64, kernel_size=(3, 3), stride=(1, 1), padding=(1, 1))
    |    )
    |    (RDB2): ResidualDenseBlock_5C(
    |      (conv1): Sequential(
    |        (0): Conv2d(64, 32, kernel_size=(3, 3), stride=(1, 1), padding=(1, 1))
    |        (1): ReLU(inplace=True)
    |      )
    |      (conv2): Sequential(
    |        (0): Conv2d(96, 32, kernel_size=(3, 3), stride=(1, 1), padding=(1, 1))
    |        (1): ReLU(inplace=True)
    |      )
    |      (conv3): Sequential(
    |        (0): Conv2d(128, 32, kernel_size=(3, 3), stride=(1, 1), padding=(1, 1))
    |        (1): ReLU(inplace=True)
    |      )
    |      (conv4): Sequential(
    |        (0): Conv2d(160, 32, kernel_size=(3, 3), stride=(1, 1), padding=(1, 1))
    |        (1): ReLU(inplace=True)
    |      )
    |      (conv5): Conv2d(192, 64, kernel_size=(3, 3), stride=(1, 1), padding=(1, 1))
    |    )
    |    (RDB3): ResidualDenseBlock_5C(
    |      (conv1): Sequential(
    |        (0): Conv2d(64, 32, kernel_size=(3, 3), stride=(1, 1), padding=(1, 1))
    |        (1): ReLU(inplace=True)
    |      )
    |      (conv2): Sequential(
    |        (0): Conv2d(96, 32, kernel_size=(3, 3), stride=(1, 1), padding=(1, 1))
    |        (1): ReLU(inplace=True)
    |      )
    |      (conv3): Sequential(
    |        (0): Conv2d(128, 32, kernel_size=(3, 3), stride=(1, 1), padding=(1, 1))
    |        (1): ReLU(inplace=True)
    |      )
    |      (conv4): Sequential(
    |        (0): Conv2d(160, 32, kernel_size=(3, 3), stride=(1, 1), padding=(1, 1))
    |        (1): ReLU(inplace=True)
    |      )
    |      (conv5): Conv2d(192, 64, kernel_size=(3, 3), stride=(1, 1), padding=(1, 1))
    |    )
    |  )
    |  (16): RRDB(
    |    (RDB1): ResidualDenseBlock_5C(
    |      (conv1): Sequential(
    |        (0): Conv2d(64, 32, kernel_size=(3, 3), stride=(1, 1), padding=(1, 1))
    |        (1): ReLU(inplace=True)
    |      )
    |      (conv2): Sequential(
    |        (0): Conv2d(96, 32, kernel_size=(3, 3), stride=(1, 1), padding=(1, 1))
    |        (1): ReLU(inplace=True)
    |      )
    |      (conv3): Sequential(
    |        (0): Conv2d(128, 32, kernel_size=(3, 3), stride=(1, 1), padding=(1, 1))
    |        (1): ReLU(inplace=True)
    |      )
    |      (conv4): Sequential(
    |        (0): Conv2d(160, 32, kernel_size=(3, 3), stride=(1, 1), padding=(1, 1))
    |        (1): ReLU(inplace=True)
    |      )
    |      (conv5): Conv2d(192, 64, kernel_size=(3, 3), stride=(1, 1), padding=(1, 1))
    |    )
    |    (RDB2): ResidualDenseBlock_5C(
    |      (conv1): Sequential(
    |        (0): Conv2d(64, 32, kernel_size=(3, 3), stride=(1, 1), padding=(1, 1))
    |        (1): ReLU(inplace=True)
    |      )
    |      (conv2): Sequential(
    |        (0): Conv2d(96, 32, kernel_size=(3, 3), stride=(1, 1), padding=(1, 1))
    |        (1): ReLU(inplace=True)
    |      )
    |      (conv3): Sequential(
    |        (0): Conv2d(128, 32, kernel_size=(3, 3), stride=(1, 1), padding=(1, 1))
    |        (1): ReLU(inplace=True)
    |      )
    |      (conv4): Sequential(
    |        (0): Conv2d(160, 32, kernel_size=(3, 3), stride=(1, 1), padding=(1, 1))
    |        (1): ReLU(inplace=True)
    |      )
    |      (conv5): Conv2d(192, 64, kernel_size=(3, 3), stride=(1, 1), padding=(1, 1))
    |    )
    |    (RDB3): ResidualDenseBlock_5C(
    |      (conv1): Sequential(
    |        (0): Conv2d(64, 32, kernel_size=(3, 3), stride=(1, 1), padding=(1, 1))
    |        (1): ReLU(inplace=True)
    |      )
    |      (conv2): Sequential(
    |        (0): Conv2d(96, 32, kernel_size=(3, 3), stride=(1, 1), padding=(1, 1))
    |        (1): ReLU(inplace=True)
    |      )
    |      (conv3): Sequential(
    |        (0): Conv2d(128, 32, kernel_size=(3, 3), stride=(1, 1), padding=(1, 1))
    |        (1): ReLU(inplace=True)
    |      )
    |      (conv4): Sequential(
    |        (0): Conv2d(160, 32, kernel_size=(3, 3), stride=(1, 1), padding=(1, 1))
    |        (1): ReLU(inplace=True)
    |      )
    |      (conv5): Conv2d(192, 64, kernel_size=(3, 3), stride=(1, 1), padding=(1, 1))
    |    )
    |  )
    |  (17): RRDB(
    |    (RDB1): ResidualDenseBlock_5C(
    |      (conv1): Sequential(
    |        (0): Conv2d(64, 32, kernel_size=(3, 3), stride=(1, 1), padding=(1, 1))
    |        (1): ReLU(inplace=True)
    |      )
    |      (conv2): Sequential(
    |        (0): Conv2d(96, 32, kernel_size=(3, 3), stride=(1, 1), padding=(1, 1))
    |        (1): ReLU(inplace=True)
    |      )
    |      (conv3): Sequential(
    |        (0): Conv2d(128, 32, kernel_size=(3, 3), stride=(1, 1), padding=(1, 1))
    |        (1): ReLU(inplace=True)
    |      )
    |      (conv4): Sequential(
    |        (0): Conv2d(160, 32, kernel_size=(3, 3), stride=(1, 1), padding=(1, 1))
    |        (1): ReLU(inplace=True)
    |      )
    |      (conv5): Conv2d(192, 64, kernel_size=(3, 3), stride=(1, 1), padding=(1, 1))
    |    )
    |    (RDB2): ResidualDenseBlock_5C(
    |      (conv1): Sequential(
    |        (0): Conv2d(64, 32, kernel_size=(3, 3), stride=(1, 1), padding=(1, 1))
    |        (1): ReLU(inplace=True)
    |      )
    |      (conv2): Sequential(
    |        (0): Conv2d(96, 32, kernel_size=(3, 3), stride=(1, 1), padding=(1, 1))
    |        (1): ReLU(inplace=True)
    |      )
    |      (conv3): Sequential(
    |        (0): Conv2d(128, 32, kernel_size=(3, 3), stride=(1, 1), padding=(1, 1))
    |        (1): ReLU(inplace=True)
    |      )
    |      (conv4): Sequential(
    |        (0): Conv2d(160, 32, kernel_size=(3, 3), stride=(1, 1), padding=(1, 1))
    |        (1): ReLU(inplace=True)
    |      )
    |      (conv5): Conv2d(192, 64, kernel_size=(3, 3), stride=(1, 1), padding=(1, 1))
    |    )
    |    (RDB3): ResidualDenseBlock_5C(
    |      (conv1): Sequential(
    |        (0): Conv2d(64, 32, kernel_size=(3, 3), stride=(1, 1), padding=(1, 1))
    |        (1): ReLU(inplace=True)
    |      )
    |      (conv2): Sequential(
    |        (0): Conv2d(96, 32, kernel_size=(3, 3), stride=(1, 1), padding=(1, 1))
    |        (1): ReLU(inplace=True)
    |      )
    |      (conv3): Sequential(
    |        (0): Conv2d(128, 32, kernel_size=(3, 3), stride=(1, 1), padding=(1, 1))
    |        (1): ReLU(inplace=True)
    |      )
    |      (conv4): Sequential(
    |        (0): Conv2d(160, 32, kernel_size=(3, 3), stride=(1, 1), padding=(1, 1))
    |        (1): ReLU(inplace=True)
    |      )
    |      (conv5): Conv2d(192, 64, kernel_size=(3, 3), stride=(1, 1), padding=(1, 1))
    |    )
    |  )
    |  (18): RRDB(
    |    (RDB1): ResidualDenseBlock_5C(
    |      (conv1): Sequential(
    |        (0): Conv2d(64, 32, kernel_size=(3, 3), stride=(1, 1), padding=(1, 1))
    |        (1): ReLU(inplace=True)
    |      )
    |      (conv2): Sequential(
    |        (0): Conv2d(96, 32, kernel_size=(3, 3), stride=(1, 1), padding=(1, 1))
    |        (1): ReLU(inplace=True)
    |      )
    |      (conv3): Sequential(
    |        (0): Conv2d(128, 32, kernel_size=(3, 3), stride=(1, 1), padding=(1, 1))
    |        (1): ReLU(inplace=True)
    |      )
    |      (conv4): Sequential(
    |        (0): Conv2d(160, 32, kernel_size=(3, 3), stride=(1, 1), padding=(1, 1))
    |        (1): ReLU(inplace=True)
    |      )
    |      (conv5): Conv2d(192, 64, kernel_size=(3, 3), stride=(1, 1), padding=(1, 1))
    |    )
    |    (RDB2): ResidualDenseBlock_5C(
    |      (conv1): Sequential(
    |        (0): Conv2d(64, 32, kernel_size=(3, 3), stride=(1, 1), padding=(1, 1))
    |        (1): ReLU(inplace=True)
    |      )
    |      (conv2): Sequential(
    |        (0): Conv2d(96, 32, kernel_size=(3, 3), stride=(1, 1), padding=(1, 1))
    |        (1): ReLU(inplace=True)
    |      )
    |      (conv3): Sequential(
    |        (0): Conv2d(128, 32, kernel_size=(3, 3), stride=(1, 1), padding=(1, 1))
    |        (1): ReLU(inplace=True)
    |      )
    |      (conv4): Sequential(
    |        (0): Conv2d(160, 32, kernel_size=(3, 3), stride=(1, 1), padding=(1, 1))
    |        (1): ReLU(inplace=True)
    |      )
    |      (conv5): Conv2d(192, 64, kernel_size=(3, 3), stride=(1, 1), padding=(1, 1))
    |    )
    |    (RDB3): ResidualDenseBlock_5C(
    |      (conv1): Sequential(
    |        (0): Conv2d(64, 32, kernel_size=(3, 3), stride=(1, 1), padding=(1, 1))
    |        (1): ReLU(inplace=True)
    |      )
    |      (conv2): Sequential(
    |        (0): Conv2d(96, 32, kernel_size=(3, 3), stride=(1, 1), padding=(1, 1))
    |        (1): ReLU(inplace=True)
    |      )
    |      (conv3): Sequential(
    |        (0): Conv2d(128, 32, kernel_size=(3, 3), stride=(1, 1), padding=(1, 1))
    |        (1): ReLU(inplace=True)
    |      )
    |      (conv4): Sequential(
    |        (0): Conv2d(160, 32, kernel_size=(3, 3), stride=(1, 1), padding=(1, 1))
    |        (1): ReLU(inplace=True)
    |      )
    |      (conv5): Conv2d(192, 64, kernel_size=(3, 3), stride=(1, 1), padding=(1, 1))
    |    )
    |  )
    |  (19): RRDB(
    |    (RDB1): ResidualDenseBlock_5C(
    |      (conv1): Sequential(
    |        (0): Conv2d(64, 32, kernel_size=(3, 3), stride=(1, 1), padding=(1, 1))
    |        (1): ReLU(inplace=True)
    |      )
    |      (conv2): Sequential(
    |        (0): Conv2d(96, 32, kernel_size=(3, 3), stride=(1, 1), padding=(1, 1))
    |        (1): ReLU(inplace=True)
    |      )
    |      (conv3): Sequential(
    |        (0): Conv2d(128, 32, kernel_size=(3, 3), stride=(1, 1), padding=(1, 1))
    |        (1): ReLU(inplace=True)
    |      )
    |      (conv4): Sequential(
    |        (0): Conv2d(160, 32, kernel_size=(3, 3), stride=(1, 1), padding=(1, 1))
    |        (1): ReLU(inplace=True)
    |      )
    |      (conv5): Conv2d(192, 64, kernel_size=(3, 3), stride=(1, 1), padding=(1, 1))
    |    )
    |    (RDB2): ResidualDenseBlock_5C(
    |      (conv1): Sequential(
    |        (0): Conv2d(64, 32, kernel_size=(3, 3), stride=(1, 1), padding=(1, 1))
    |        (1): ReLU(inplace=True)
    |      )
    |      (conv2): Sequential(
    |        (0): Conv2d(96, 32, kernel_size=(3, 3), stride=(1, 1), padding=(1, 1))
    |        (1): ReLU(inplace=True)
    |      )
    |      (conv3): Sequential(
    |        (0): Conv2d(128, 32, kernel_size=(3, 3), stride=(1, 1), padding=(1, 1))
    |        (1): ReLU(inplace=True)
    |      )
    |      (conv4): Sequential(
    |        (0): Conv2d(160, 32, kernel_size=(3, 3), stride=(1, 1), padding=(1, 1))
    |        (1): ReLU(inplace=True)
    |      )
    |      (conv5): Conv2d(192, 64, kernel_size=(3, 3), stride=(1, 1), padding=(1, 1))
    |    )
    |    (RDB3): ResidualDenseBlock_5C(
    |      (conv1): Sequential(
    |        (0): Conv2d(64, 32, kernel_size=(3, 3), stride=(1, 1), padding=(1, 1))
    |        (1): ReLU(inplace=True)
    |      )
    |      (conv2): Sequential(
    |        (0): Conv2d(96, 32, kernel_size=(3, 3), stride=(1, 1), padding=(1, 1))
    |        (1): ReLU(inplace=True)
    |      )
    |      (conv3): Sequential(
    |        (0): Conv2d(128, 32, kernel_size=(3, 3), stride=(1, 1), padding=(1, 1))
    |        (1): ReLU(inplace=True)
    |      )
    |      (conv4): Sequential(
    |        (0): Conv2d(160, 32, kernel_size=(3, 3), stride=(1, 1), padding=(1, 1))
    |        (1): ReLU(inplace=True)
    |      )
    |      (conv5): Conv2d(192, 64, kernel_size=(3, 3), stride=(1, 1), padding=(1, 1))
    |    )
    |  )
    |  (20): RRDB(
    |    (RDB1): ResidualDenseBlock_5C(
    |      (conv1): Sequential(
    |        (0): Conv2d(64, 32, kernel_size=(3, 3), stride=(1, 1), padding=(1, 1))
    |        (1): ReLU(inplace=True)
    |      )
    |      (conv2): Sequential(
    |        (0): Conv2d(96, 32, kernel_size=(3, 3), stride=(1, 1), padding=(1, 1))
    |        (1): ReLU(inplace=True)
    |      )
    |      (conv3): Sequential(
    |        (0): Conv2d(128, 32, kernel_size=(3, 3), stride=(1, 1), padding=(1, 1))
    |        (1): ReLU(inplace=True)
    |      )
    |      (conv4): Sequential(
    |        (0): Conv2d(160, 32, kernel_size=(3, 3), stride=(1, 1), padding=(1, 1))
    |        (1): ReLU(inplace=True)
    |      )
    |      (conv5): Conv2d(192, 64, kernel_size=(3, 3), stride=(1, 1), padding=(1, 1))
    |    )
    |    (RDB2): ResidualDenseBlock_5C(
    |      (conv1): Sequential(
    |        (0): Conv2d(64, 32, kernel_size=(3, 3), stride=(1, 1), padding=(1, 1))
    |        (1): ReLU(inplace=True)
    |      )
    |      (conv2): Sequential(
    |        (0): Conv2d(96, 32, kernel_size=(3, 3), stride=(1, 1), padding=(1, 1))
    |        (1): ReLU(inplace=True)
    |      )
    |      (conv3): Sequential(
    |        (0): Conv2d(128, 32, kernel_size=(3, 3), stride=(1, 1), padding=(1, 1))
    |        (1): ReLU(inplace=True)
    |      )
    |      (conv4): Sequential(
    |        (0): Conv2d(160, 32, kernel_size=(3, 3), stride=(1, 1), padding=(1, 1))
    |        (1): ReLU(inplace=True)
    |      )
    |      (conv5): Conv2d(192, 64, kernel_size=(3, 3), stride=(1, 1), padding=(1, 1))
    |    )
    |    (RDB3): ResidualDenseBlock_5C(
    |      (conv1): Sequential(
    |        (0): Conv2d(64, 32, kernel_size=(3, 3), stride=(1, 1), padding=(1, 1))
    |        (1): ReLU(inplace=True)
    |      )
    |      (conv2): Sequential(
    |        (0): Conv2d(96, 32, kernel_size=(3, 3), stride=(1, 1), padding=(1, 1))
    |        (1): ReLU(inplace=True)
    |      )
    |      (conv3): Sequential(
    |        (0): Conv2d(128, 32, kernel_size=(3, 3), stride=(1, 1), padding=(1, 1))
    |        (1): ReLU(inplace=True)
    |      )
    |      (conv4): Sequential(
    |        (0): Conv2d(160, 32, kernel_size=(3, 3), stride=(1, 1), padding=(1, 1))
    |        (1): ReLU(inplace=True)
    |      )
    |      (conv5): Conv2d(192, 64, kernel_size=(3, 3), stride=(1, 1), padding=(1, 1))
    |    )
    |  )
    |  (21): RRDB(
    |    (RDB1): ResidualDenseBlock_5C(
    |      (conv1): Sequential(
    |        (0): Conv2d(64, 32, kernel_size=(3, 3), stride=(1, 1), padding=(1, 1))
    |        (1): ReLU(inplace=True)
    |      )
    |      (conv2): Sequential(
    |        (0): Conv2d(96, 32, kernel_size=(3, 3), stride=(1, 1), padding=(1, 1))
    |        (1): ReLU(inplace=True)
    |      )
    |      (conv3): Sequential(
    |        (0): Conv2d(128, 32, kernel_size=(3, 3), stride=(1, 1), padding=(1, 1))
    |        (1): ReLU(inplace=True)
    |      )
    |      (conv4): Sequential(
    |        (0): Conv2d(160, 32, kernel_size=(3, 3), stride=(1, 1), padding=(1, 1))
    |        (1): ReLU(inplace=True)
    |      )
    |      (conv5): Conv2d(192, 64, kernel_size=(3, 3), stride=(1, 1), padding=(1, 1))
    |    )
    |    (RDB2): ResidualDenseBlock_5C(
    |      (conv1): Sequential(
    |        (0): Conv2d(64, 32, kernel_size=(3, 3), stride=(1, 1), padding=(1, 1))
    |        (1): ReLU(inplace=True)
    |      )
    |      (conv2): Sequential(
    |        (0): Conv2d(96, 32, kernel_size=(3, 3), stride=(1, 1), padding=(1, 1))
    |        (1): ReLU(inplace=True)
    |      )
    |      (conv3): Sequential(
    |        (0): Conv2d(128, 32, kernel_size=(3, 3), stride=(1, 1), padding=(1, 1))
    |        (1): ReLU(inplace=True)
    |      )
    |      (conv4): Sequential(
    |        (0): Conv2d(160, 32, kernel_size=(3, 3), stride=(1, 1), padding=(1, 1))
    |        (1): ReLU(inplace=True)
    |      )
    |      (conv5): Conv2d(192, 64, kernel_size=(3, 3), stride=(1, 1), padding=(1, 1))
    |    )
    |    (RDB3): ResidualDenseBlock_5C(
    |      (conv1): Sequential(
    |        (0): Conv2d(64, 32, kernel_size=(3, 3), stride=(1, 1), padding=(1, 1))
    |        (1): ReLU(inplace=True)
    |      )
    |      (conv2): Sequential(
    |        (0): Conv2d(96, 32, kernel_size=(3, 3), stride=(1, 1), padding=(1, 1))
    |        (1): ReLU(inplace=True)
    |      )
    |      (conv3): Sequential(
    |        (0): Conv2d(128, 32, kernel_size=(3, 3), stride=(1, 1), padding=(1, 1))
    |        (1): ReLU(inplace=True)
    |      )
    |      (conv4): Sequential(
    |        (0): Conv2d(160, 32, kernel_size=(3, 3), stride=(1, 1), padding=(1, 1))
    |        (1): ReLU(inplace=True)
    |      )
    |      (conv5): Conv2d(192, 64, kernel_size=(3, 3), stride=(1, 1), padding=(1, 1))
    |    )
    |  )
    |  (22): RRDB(
    |    (RDB1): ResidualDenseBlock_5C(
    |      (conv1): Sequential(
    |        (0): Conv2d(64, 32, kernel_size=(3, 3), stride=(1, 1), padding=(1, 1))
    |        (1): ReLU(inplace=True)
    |      )
    |      (conv2): Sequential(
    |        (0): Conv2d(96, 32, kernel_size=(3, 3), stride=(1, 1), padding=(1, 1))
    |        (1): ReLU(inplace=True)
    |      )
    |      (conv3): Sequential(
    |        (0): Conv2d(128, 32, kernel_size=(3, 3), stride=(1, 1), padding=(1, 1))
    |        (1): ReLU(inplace=True)
    |      )
    |      (conv4): Sequential(
    |        (0): Conv2d(160, 32, kernel_size=(3, 3), stride=(1, 1), padding=(1, 1))
    |        (1): ReLU(inplace=True)
    |      )
    |      (conv5): Conv2d(192, 64, kernel_size=(3, 3), stride=(1, 1), padding=(1, 1))
    |    )
    |    (RDB2): ResidualDenseBlock_5C(
    |      (conv1): Sequential(
    |        (0): Conv2d(64, 32, kernel_size=(3, 3), stride=(1, 1), padding=(1, 1))
    |        (1): ReLU(inplace=True)
    |      )
    |      (conv2): Sequential(
    |        (0): Conv2d(96, 32, kernel_size=(3, 3), stride=(1, 1), padding=(1, 1))
    |        (1): ReLU(inplace=True)
    |      )
    |      (conv3): Sequential(
    |        (0): Conv2d(128, 32, kernel_size=(3, 3), stride=(1, 1), padding=(1, 1))
    |        (1): ReLU(inplace=True)
    |      )
    |      (conv4): Sequential(
    |        (0): Conv2d(160, 32, kernel_size=(3, 3), stride=(1, 1), padding=(1, 1))
    |        (1): ReLU(inplace=True)
    |      )
    |      (conv5): Conv2d(192, 64, kernel_size=(3, 3), stride=(1, 1), padding=(1, 1))
    |    )
    |    (RDB3): ResidualDenseBlock_5C(
    |      (conv1): Sequential(
    |        (0): Conv2d(64, 32, kernel_size=(3, 3), stride=(1, 1), padding=(1, 1))
    |        (1): ReLU(inplace=True)
    |      )
    |      (conv2): Sequential(
    |        (0): Conv2d(96, 32, kernel_size=(3, 3), stride=(1, 1), padding=(1, 1))
    |        (1): ReLU(inplace=True)
    |      )
    |      (conv3): Sequential(
    |        (0): Conv2d(128, 32, kernel_size=(3, 3), stride=(1, 1), padding=(1, 1))
    |        (1): ReLU(inplace=True)
    |      )
    |      (conv4): Sequential(
    |        (0): Conv2d(160, 32, kernel_size=(3, 3), stride=(1, 1), padding=(1, 1))
    |        (1): ReLU(inplace=True)
    |      )
    |      (conv5): Conv2d(192, 64, kernel_size=(3, 3), stride=(1, 1), padding=(1, 1))
    |    )
    |  )
    |  (23): Conv2d(64, 64, kernel_size=(3, 3), stride=(1, 1), padding=(1, 1))
    |)
    (2): Upsample(scale_factor=2.0, mode=nearest)
    (3): Conv2d(64, 64, kernel_size=(3, 3), stride=(1, 1), padding=(1, 1))
    (4): ReLU(inplace=True)
    (5): Upsample(scale_factor=2.0, mode=nearest)
    (6): Conv2d(64, 64, kernel_size=(3, 3), stride=(1, 1), padding=(1, 1))
    (7): ReLU(inplace=True)
    (8): Conv2d(64, 64, kernel_size=(3, 3), stride=(1, 1), padding=(1, 1))
    (9): ReLU(inplace=True)
    (10): Conv2d(64, 3, kernel_size=(3, 3), stride=(1, 1), padding=(1, 1))
  )
)

21-12-22 22:10:08.678 : 
 |  mean  |  min   |  max   |  std   || shape               
 |  0.000 | -0.080 |  0.076 |  0.025 | torch.Size([64, 3, 3, 3]) || model.0.weight
 |  0.000 |  0.000 |  0.000 |  0.000 | torch.Size([64]) || model.0.bias
 |  0.000 | -0.034 |  0.033 |  0.008 | torch.Size([32, 64, 3, 3]) || model.1.sub.0.RDB1.conv1.0.weight
…
